src/explore/cnn code/cnn_trained_model.pt (torch_old, 73471 bytes, 10 tensors)

convLayer1.weight f4 [16, 1, 3, 3]
000000 8d 02 0a 3d 71 cb ee 3e 55 65 d2 be ac 32 5c 3d
       0.03369384 0.46639588 -0.41092935 0.053759262
000010 e9 26 e1 be 35 e7 7e 3e 59 13 14 be 53 bc 34 be
       -0.43975 0.24892886 -0.14460506 -0.17649965
000020 07 ab 89 bd e3 e1 bf be 8f 81 73 be 38 b6 77 be
       -0.06722074 -0.37477025 -0.23779891 -0.24190605
000030 99 4d f9 be 6b ae cc be fc a4 0a 3e 67 6c 8e 3e
       -0.48692015 -0.3997682 0.13539499 0.2781708
000040 f3 90 06 3e 00 d6 f4 be 96 8c 65 3e cf d7 82 3e
       0.13141231 -0.4781952 0.2241691 0.25555274
000050 da b0 f6 3e ad 9c b4 3d 12 9f b8 3d f9 70 87 be
       0.48181802 0.08818946 0.09014715 -0.2645338
000060 6c 30 cd 3e 12 ad 93 3d ff d0 a7 be bd 2e b1 3d
       0.40076005 0.07210745 -0.3277664 0.08651493
000070 cf d5 ba bd 4f 63 16 3e 95 52 12 be e0 ed 7e be
       -0.09122812 0.1468632 -0.14289315 -0.2489543
000080 60 5b ab bd 9a 86 a1 3e 09 10 b5 3c 76 96 46 3d
       -0.08367038 0.31548005 0.022102373 0.048483334
000090 73 46 10 3f d6 31 87 3e 8f 43 4d bd c0 c0 95 3e
       0.56357497 0.2640521 -0.050113257 0.2924862
0000a0 c2 0c a0 bd 6f eb de 3d 77 e2 b5 bc 95 73 0b be
       -0.07814933 0.10884749 -0.022202713 -0.1361831
0000b0 41 34 90 bd 11 54 7b 3d 63 65 fa be c5 24 17 3e
       -0.07041217 0.06135947 -0.48905477 0.1476012
0000c0 a1 90 88 be 25 46 25 3d ee bc 85 3e c2 51 8f 3d
       -0.26672843 0.0403501 0.26120704 0.06998016
0000d0 56 5f b6 3e 47 bd 99 3e 94 64 b0 bc b8 76 5f 3e
       0.3561961 0.3002722 -0.021532334 0.21822631
0000e0 76 75 98 bb bc 3d ad 3d be 05 0b 3e 7d ec 1d 3d
       -0.0046526743 0.084590405 0.13576409 0.03855561
0000f0 b9 ed a8 bd 99 5d bb 3d 9a db da 3e d2 21 2d 3e
       -0.08248467 0.09148712 0.42745668 0.16907433
000100 95 2b 58 3e 9b 46 a8 3c 49 8a a2 be 47 59 5b be
       0.21110375 0.02054148 -0.31746128 -0.21420775
000110 23 8b 66 be d3 e3 0b be df f3 49 be 04 4e ac 3e
       -0.22514014 -0.13661127 -0.19721936 0.3365327
000120 7a 7b 01 3e d4 c7 e5 bd 30 38 59 be 05 2b e4 3e
       0.12644759 -0.11219755 -0.2121284 0.4456407
000130 9b 80 34 3e 67 5a fc bd d5 c3 a4 3c 73 ab ed bc
       0.17627184 -0.123219304 0.020112911 -0.029012417
000140 17 ad 4d be 29 fa 9e 3c f8 32 9d bd 0b 1a dc 3e
       -0.2008556 0.019406395 -0.07675737 0.4298862
000150 3f 6d 6c 3d b4 c6 12 3e 66 51 26 bd a3 ed ed 3e
       0.057721373 0.14333612 -0.04060497 0.46470365
000160 0c 24 63 bd 81 34 04 3e c4 6f 53 3c 63 82 26 3e
       -0.0554543 0.12910654 0.012905065 0.16260676
000170 4a e4 a0 3e b6 ec 49 be 1a 37 2f bf fd 4c 08 be
       0.3142417 -0.19719204 -0.68443453 -0.13310619
000180 4f d6 f4 3e 82 cd 20 3e 84 a6 34 3e 3e eb 47 3e
       0.47819754 0.15703395 0.17641646 0.19523332
000190 b9 1f 31 be be 36 03 be a9 3b 6f 3d b8 9f c7 3d
       -0.17297257 -0.12813851 0.058406506 0.09747261
0001a0 1e 8b 92 3e 78 cd b2 bd 8a 5d 91 3e 56 82 9a 3d
       0.28621763 -0.08730596 0.28391677 0.07544391
0001b0 6a 01 0b bd 16 f7 6d 3e 7b 3d 5d 3e 0b ba 48 3e
       -0.033936895 0.23238787 0.21605484 0.1960222
0001c0 57 94 39 be 94 57 37 be 5c 32 00 3d 3c 98 fe 3d
       -0.18122993 -0.17904502 0.031298026 0.1243138
0001d0 73 f9 a3 3e cc b4 e4 3b a5 bf 05 bf 45 82 9f bc
       0.32026252 0.0069795605 -0.5224555 -0.019471297
0001e0 84 91 22 be d9 74 06 bf 55 00 3b 3c f4 cf ce 3d
       -0.15875822 -0.52522045 0.011413653 0.10098258
0001f0 57 16 41 be f7 34 a6 bd 5a 49 4a 3e 20 f6 a9 3e
       -0.18856178 -0.08115571 0.19754544 0.3319559
000200 d2 39 be 3d d7 fe a1 3e b7 3c 87 bc c9 b5 da bd
       0.09288372 0.3163974 -0.016508443 -0.10679204
000210 8f 97 76 3d e4 a9 a5 3c 03 84 b9 3e 41 31 c5 3d
       0.06020313 0.020222612 0.3623353 0.09628535
000220 cf 99 06 3e a6 9e 87 3e 79 d3 82 3e 6e ea 11 3c
       0.13144611 0.26488227 0.25551966 0.00890599
000230 9c e7 9a 3e 90 06 7d bd f9 20 3c be 22 a0 d2 3d
       0.3025483 -0.061773837 -0.18371953 0.10284449

convLayer1.bias f4 [16]
000000 07 a6 2d bd f2 e6 3d 3e 13 10 a4 be 32 ac 6f 3e
       -0.042394664 0.1854513 -0.32043514 0.23405531
000010 d3 74 16 be 18 3b 92 bd f3 5e bb 3e 66 ad 70 3e
       -0.14693002 -0.071401775 0.36595878 0.23503646
000020 14 b7 76 3d a9 ca df be e9 46 aa 3c c0 95 85 be
       0.06023319 -0.43709305 0.020785766 -0.26090813
000030 e6 c7 3c 3e 81 3e a8 3e b1 1f b4 be e5 4f 80 3e
       0.1843563 0.32860187 -0.3518043 0.25060955

convLayer2.weight f4 [16, 16, 3, 3]
000000 4b a4 17 bd 66 28 73 3d 9b a6 54 3d 91 df 1a be
       -0.037021916 0.0593647 0.0519167 -0.15124346
000010 00 d4 de 3d fc 6d 46 3d c2 51 b8 3c 82 91 a9 3d
       0.108802795 0.048444733 0.022499923 0.082797065
000020 07 eb a0 3d c2 16 27 bc f8 c2 eb 3d 79 25 bd 3d
       0.07857328 -0.010198297 0.11511797 0.09235663
000030 46 f0 97 bc c5 3e 19 3e b4 e0 df 3d c6 a0 67 bd
       -0.018547188 0.14965351 0.109315306 -0.05654981
000040 0b dc 12 3e 04 e6 89 3c df 66 b8 bd 1b e4 a7 bd
       0.14341752 0.016833313 -0.09003996 -0.081978045
000050 18 bb 11 3d 25 82 b8 bd eb 9f e1 bd 9d 4f 0b 3e
       0.035578817 -0.09009198 -0.1101683 0.13604589
000060 af 11 2e be a7 76 fd bc f9 f3 02 3e 8f 84 50 bd
       -0.16998933 -0.030940367 0.1278838 -0.050907668
000070 17 ef 1b 3d 8e b3 ce 3d e7 86 21 bd 20 dd 5c 3d
       0.03806981 0.10092841 -0.039435294 0.05392182
000080 cf 83 09 3e b0 17 fd bb 02 f2 9c bb f3 7e 51 3d
       0.13429187 -0.007723771 -0.0047895918 0.05114646
000090 dc 49 d6 be ec d5 11 be 3c ae a1 3d 78 97 39 be
       -0.41853225 -0.14241761 0.07894561 -0.18124187
0000a0 c4 42 06 bd 92 2d 0b 3e 05 b5 03 be 12 16 92 bd
       -0.032778516 0.13591602 -0.12862022 -0.07133116
0000b0 6f 2e 96 3d 9d ef 48 bd 06 c3 6d bd d7 6f 35 3c
       0.07333075 -0.049056638 -0.058047317 0.011074028
0000c0 16 a8 c0 bc 86 a1 ff 3c 8e ba 93 3d 26 ba 0c be
       -0.02351765 0.03120495 0.07213317 -0.13742885
0000d0 34 39 50 3d db ef 9e 3d eb 71 8b bc cb 40 0a 3d
       0.050835803 0.077605926 -0.017022094 0.033753198
0000e0 d3 0a 43 bc 62 90 f6 bc 0e 32 52 3d 24 27 fa 3c
       -0.011904436 -0.030098144 0.051317267 0.030536242
0000f0 b0 c4 06 3c a1 49 86 3b b2 30 b4 3d 10 7c d9 3c
       0.008225605 0.0040981327 0.087983504 0.026548415
000100 36 9b 5c 3d 9c 3d 1f 3e 7f af 07 3d dc f4 2c 3c
       0.05385896 0.15550846 0.03312635 0.010556426
000110 ca df 13 3e ac 6a 57 bd e0 f4 e1 3c 02 f8 53 3d
       0.14440838 -0.052591965 0.027582586 0.05175019
000120 18 eb 32 be 18 4a 9d bd 5a 48 f5 3d dc f4 12 be
       -0.17472494 -0.07680148 0.119766906 -0.14351219
000130 73 c9 b4 bd 3d dc 17 bc ac a2 3e be d2 6c 90 bd
       -0.08827486 -0.0092688175 -0.18616742 -0.07052006
000140 6e 3d dc 3c 34 44 c7 bd b6 91 2c bb 9e 15 f4 3d
       0.02688476 -0.097298056 -0.0026331968 0.11918186
000150 5d 5a 98 bd a6 a6 87 bd b5 cd 5b 3c f0 4d 76 be
       -0.074391104 -0.066235825 0.013415744 -0.24053168
000160 57 d4 0f be 5b 98 0c 3e 20 f7 a5 bd 45 ec 11 3e
       -0.14045845 0.13729994 -0.08103776 0.14250286
000170 1d 72 2c 3e 73 7f e1 bd 30 af 7e 3c 04 05 1e 3c
       0.16840406 -0.11010637 0.015544698 0.0096447505
000180 47 5c 25 be 33 99 8c bd 5f b4 56 3d 48 e2 a4 bd
       -0.16148482 -0.06865158 0.05241811 -0.08050972
000190 7f 45 b6 bd 1e 4b 96 3d b1 1f 30 bd 3d e4 6c 3d
       -0.08899974 0.07338546 -0.042998973 0.057834852
0001a0 29 6a 8b 3d b2 02 7c bc 87 80 bc 3d 8f ac 86 3d
       0.06807358 -0.015381502 0.09204202 0.06575882
0001b0 8e 70 94 3c e5 91 15 3d 34 d3 21 bd e8 af 37 bc
       0.018120077 0.03651609 -0.03950806 -0.011211373
0001c0 11 f1 49 3b b4 37 f9 3c be 8b be bc 28 ec 5d 3d
       0.0030813853 0.03042207 -0.023259994 0.054180294
0001d0 bf 89 fe bc 4f a0 51 bd 2b ce 88 3d 91 45 e0 3d
       -0.031071542 -0.051178273 0.066799484 0.10950769
0001e0 90 d3 e5 bd 4f be b6 3c 96 02 f9 3d a9 6c 01 be
       -0.11221993 0.022307543 0.12158696 -0.12639107
0001f0 f0 24 29 3d af 28 7c 3d a6 8f 3d be c8 e9 59 bc
       0.041294992 0.061562236 -0.18511829 -0.013300367
000200 c4 c5 9a bc 92 73 9e bd a9 2b 67 bd cd 43 0c 3d
       -0.01889313 -0.07736887 -0.056438122 0.034244347
000210 86 81 4e bc 1f 0f 4a bd 1b 3d 28 3e ba e9 e4 bd
       -0.012604123 -0.049330827 0.1642956 -0.11177392
000220 b1 35 58 3d 6c cb 8e 3c ec bd 0f bb c1 29 8a bd
       0.05278558 0.017430983 -0.002193327 -0.06746245
000230 e3 7d 2a 3d 3d 62 43 bc 97 be 76 3d f1 a0 46 3d
       0.04162396 -0.011925277 0.060240354 0.04849333
000240 c0 1e cd bd 2a f5 ae 3b 67 6c 96 3d 39 77 82 3d
       -0.10015631 0.0053392844 0.07344895 0.06370396
000250 2e f0 40 3c 2a 28 00 3e ae 74 0a bd 3d 18 03 3d
       0.011776013 0.12515321 -0.03380268 0.032005537
000260 5a ca ff 3c fa 34 60 3d 54 fb 11 3e 89 ef ea 3d
       0.031224418 0.054738022 0.1425603 0.11471469
000270 da 54 b7 bd d3 a7 48 bd ed a4 bc 3d 9a 00 a5 3d
       -0.08951731 -0.048988175 0.092111446 0.08056755
000280 bb f1 ba 3d a9 d9 80 3d bd a6 8c bd e8 5d 18 3b
       0.09128138 0.062915154 -0.0686774 0.0023249332
000290 0b 37 3b 3e c5 cd 61 bd ec 72 21 3d 2e 2c 93 3d
       0.18282716 -0.055127878 0.03941624 0.07186161
0002a0 2b fe f4 bd 58 32 89 bd cd 6e 52 bd 20 06 0d bd
       -0.11962541 -0.066990554 -0.0513752 -0.03442967
0002b0 81 78 01 3e 8c 3e bc 3c 7e e8 26 3d 6d 9a 93 3c
       0.12643625 0.022979043 0.040749066 0.018017972
0002c0 6a 9b b5 3d c3 62 e8 bd 85 e7 ab 3d 4d 7c bb 3c
       0.088675335 -0.11346962 0.08393768 0.02288642
0002d0 2e 4c 57 be 55 90 ba bd a1 07 31 3d 8c 46 cc bd
       -0.21025154 -0.091095604 0.043220166 -0.09974393
0002e0 41 f2 a1 bd 32 ad 8c 3d df 02 8c 3b 4e 48 cd bd
       -0.079075344 0.06868972 0.004272803 -0.10023557
0002f0 65 de d5 bd 37 4a ee bc 61 50 47 bd a2 8e 3b 3d
       -0.10442809 -0.029088123 -0.04866064 0.045790322
000300 8c 70 eb bd 9a f0 0c bb 3a 64 02 3c ea 86 25 bd
       -0.11496076 -0.0021505714 0.007958466 -0.040411867
000310 97 68 10 3d 6c b6 82 3d 06 08 60 bc 3a c4 69 bb
       0.035255995 0.063824505 -0.013673788 -0.0035669939
000320 0a a9 86 bb 74 d1 c3 bd 3c d7 96 3d 61 e9 ab 3c
       -0.0041095065 -0.095614344 0.073652714 0.020985307
000330 f0 c8 c0 3c 78 1e 91 bc 3d 84 91 3d 2a eb 8f bc
       0.023533314 -0.017714724 0.071053006 -0.01756819
000340 56 eb a9 3d a3 c0 9d 3d 0c 4f 9a bd c0 4a 08 3c
       0.0829684 0.07702758 -0.07534608 0.008318603
000350 aa ce e2 3d 73 a0 8f bd 43 0f 85 3d 5c ec 0e 3d
       0.11074574 -0.07013025 0.064970516 0.03489338
000360 f1 92 2f bd 95 c1 3e 3c 3e b6 17 3d 82 05 78 bc
       -0.042864744 0.011642833 0.037039034 -0.015138032
000370 ac 8e fb 3d 2c 0b dc 3c 5d 18 5c bd a0 7c 58 3d
       0.12283072 0.026860796 -0.053734172 0.052853227
000380 fd 88 38 bd b3 c3 0c be 71 61 57 be 88 8a df 3d
       -0.045052517 -0.13746528 -0.21033265 0.109150946
000390 57 af fa bd 32 08 1d be ff fc 29 3d 48 68 82 bd
       -0.12240475 -0.15335158 0.04150104 -0.06367546
0003a0 c9 41 12 be 33 17 89 bd 28 13 6c bc 84 c2 28 3e
       -0.14282908 -0.06693878 -0.014408864 0.16480452
0003b0 cc 65 09 3e 7f 1f a2 bd 92 93 1d 3d d6 cf 16 3e
       0.13417739 -0.07916164 0.038470812 0.1472772
0003c0 8a e7 92 bd 84 a0 97 bc 1b d7 f2 3d 10 34 8c bd
       -0.07173069 -0.018509157 0.11857434 -0.06845868
0003d0 4a fd 2d bd 29 b7 9f bc 7f 84 e7 bd 9d 97 b9 bd
       -0.042477883 -0.019496517 -0.113045685 -0.09062121
0003e0 2f b5 cb bd 20 f5 30 be 16 f5 e3 bd 38 6c 0d 3d
       -0.099466674 -0.17281008 -0.11130731 0.034527034
0003f0 1a 87 df bd 9d 85 de bc 6a 78 c8 3d ca 33 e8 3b
       -0.109144405 -0.027163321 0.09788592 0.007086252

convLayer2.bias f4 [16]
000000 79 3a db 3d 87 f3 71 3d fd 1f a1 3c e8 ac 70 bd
       0.10704512 0.059070136 0.019668574 -0.058758646
000010 59 23 14 3d 05 2e ed 3b 5f 00 ce bc 3b ce dd 3d
       0.036166523 0.007238152 -0.025146661 0.10830351
000020 c3 59 21 bd 40 0a 34 bc 77 dc a0 3d f4 8f 81 3d
       -0.039392244 -0.010988772 0.0785455 0.06326285
000030 1d 75 8c 3d 93 72 ab 3c e3 fd a0 3d 99 e7 94 3d
       0.06858275 0.020928657 0.07860925 0.07270736

fullyConnect1.weight f4 [30, 480]
000000 a1 fc e1 bd 64 05 b2 bc 4e 96 e2 3d 15 fd 3a 3e
       -0.11034513 -0.021731086 0.110638246 0.18260606
000010 60 6b 4c 3e 03 df 66 3e 25 b5 42 3e 76 7e 29 3e
       0.19962835 0.2254601 0.19014414 0.16552147
000020 f4 ba 20 3e 66 05 e3 3d a8 85 4b 3d f7 2f cc 3d
       0.15696317 0.11085014 0.04968801 0.09970086
000030 0b 86 07 3e c2 b8 85 3d f8 62 0e 3d 07 7a a0 3d
       0.13234727 0.065293804 0.034762353 0.07835775
000040 07 14 ed 3d 6a 24 cd 3d 81 65 cb 3d b5 55 db 3d
       0.115760855 0.10016711 0.0993147 0.10709707
000050 2c fa bf 3d 25 dc cf 3c 26 fb ac 3a 6f c4 3a bd
       0.093738884 0.025373528 0.0013197407 -0.04559749
000060 0f d1 b0 bd 15 02 a6 3c 5c e2 05 3c 30 66 81 bc
       -0.08633625 0.020264665 0.008171644 -0.015795797
000070 7d 1b 8a 3d 4d 6c f0 3c b6 33 c5 bd 82 57 d1 bc
       0.06743524 0.029348517 -0.09629004 -0.025554422
000080 b6 2f 9d 3d 53 0c 24 3e 6e 6b 7a 3d 45 7c 95 3d
       0.07675116 0.16020326 0.06113761 0.07299093
000090 09 41 88 3d c5 16 21 3e b1 f6 f3 3d 47 04 ce bb
       0.066530295 0.15731342 0.11912287 -0.006287131
0000a0 51 a0 dd 3c 45 21 e3 3c 99 42 21 3d 25 d8 c9 3c
       0.027053984 0.027725825 0.039370153 0.024639199
0000b0 7a 23 26 3c 7a c9 8d 3d 33 6e b2 3d 2c 56 bf 3d
       0.010140294 0.06923194 0.08712425 0.09342608
0000c0 54 3d 6c 3d 2b 38 56 3d 30 97 46 3e 10 01 e1 3d
       0.057675675 0.05229966 0.19393611 0.10986531
0000d0 99 d6 91 3d 50 5d 96 3a 89 6b 6e 3d f0 e9 b2 3d
       0.071210094 0.0011471901 0.058208022 0.08736026
0000e0 25 7e 45 3d 28 73 60 3d 12 98 00 3e 21 8f 8c 3d
       0.048216004 0.05479732 0.1255801 0.06863237
0000f0 9c bc 83 bb 34 bd 20 3c c0 91 b4 3d bd 69 c5 3d
       -0.0040202867 0.009810735 0.08816862 0.096393086
000100 09 bd 84 bb 55 66 70 3d 16 05 ce bc d2 9c 9c bb
       -0.004050855 0.05869134 -0.02514891 -0.0047794366
000110 47 eb 61 bd d7 c1 8c bc c1 d4 e7 3b 27 1c 81 3b
       -0.05515602 -0.017182274 0.007074923 0.0039401236
000120 4e 1e 51 bd a8 ca d6 bd eb b7 c6 bc 11 82 86 3d
       -0.05105429 -0.10487872 -0.02425762 0.06567777
000130 38 50 f4 3c a7 ca 3e 3c 63 14 a0 bc 49 6c f6 3d
       0.029823408 0.011644996 -0.019540971 0.120323725
000140 38 b5 de 3d 24 2e d3 3d 70 d2 14 3e e4 31 0d 3e
       0.108744085 0.10311535 0.145334 0.13788563
000150 cb 5d 00 3e 2f 9c 15 3e 25 de b3 3d 1c e7 b7 3d
       0.12535779 0.1461036 0.08782605 0.089796275
000160 30 bb 02 3e ea 15 cc 3d 4e 6c 2c bd 1e ef a5 3c
       0.12766719 0.09965117 -0.042095475 0.020255622
000170 48 7f a5 3d b6 93 67 3d b1 a6 8c 3c 78 d6 f2 3c
       0.080809176 0.056537353 0.017169328 0.029643282
000180 5d 94 3e 3c 8f 76 61 bd 5d 41 d5 bc fc 36 57 3d
       0.011632052 -0.055044707 -0.026032144 0.05254267
000190 8e 39 04 3d 9c 11 39 bb b0 ba b4 bd 2b 7f b0 bd
       0.03228145 -0.0028239256 -0.0882467 -0.08618005
0001a0 2a cb 38 3c 79 b5 d5 3c a0 ec d0 bc 26 2b 89 3c
       0.011278907 0.02608751 -0.025503457 0.016744208
0001b0 85 e8 32 bd 24 e9 0a 3c d7 a6 90 3c 33 f4 fb 3d
       -0.04367878 0.008478437 0.01765768 0.12302437
0001c0 6c 26 19 3e eb 47 e6 3d a3 84 10 3e 83 79 43 3d
       0.14956063 0.11244186 0.14113097 0.047723304
0001d0 d5 ed a4 3d 60 5b a8 3d cb 97 6e 3d b4 1c 4a 3c
       0.08053175 0.082205534 0.05825023 0.012335945
0001e0 44 a8 d4 bd 74 aa e3 bc ca ae bc 3d b2 27 84 3d
       -0.103836566 -0.02779124 0.09213026 0.06452884
0001f0 95 dc 77 3d e6 39 c7 3d 23 8f b1 3d f2 c2 ed 3c
       0.060513098 0.0972784 0.08669879 0.029023621
000200 3a 5f d7 bc a9 c0 f2 3c 7f 83 a3 3c 41 dc 3a bc
       -0.026290525 0.029632883 0.019960163 -0.011405052
000210 cf 34 f4 bd 23 a6 f9 bd 90 f0 12 bd 4d e1 2d bd
       -0.11924135 -0.12189891 -0.03587395 -0.04245119
000220 b6 6c 55 bd 7b 49 43 bc 02 f3 41 3a aa 05 38 bd
       -0.052105628 -0.011919375 0.00073985767 -0.044927277
000230 19 f3 50 3d e5 4f 9b 3b ca 9a d4 3d 5c f1 05 3d
       0.051013086 0.004739749 0.10381086 0.03270088
000240 e6 b5 57 3d 51 03 57 3d 59 d4 ea 3d 44 cb 73 3d
       0.052663706 0.052493397 0.11466283 0.05952002
000250 56 d1 1e bd db 19 90 bd be 72 a9 bd 48 2d 1a bc
       -0.038773857 -0.070361815 -0.082738385 -0.00941021
000260 5d f8 80 3c 69 a2 a5 3d 48 38 05 3e 6f 0a 09 3e
       0.015743429 0.08087618 0.13009751 0.13382886
000270 d4 7b 6b 3d 49 74 35 3d 85 94 81 3c 6c ff 12 3c
       0.05749114 0.04430035 0.01581789 0.00897203
000280 d6 c5 0c 3d 23 d0 de bc da f0 c4 bd 51 a6 7f bd
       0.03436836 -0.027198857 -0.09616251 -0.06241447
000290 e6 27 5b bd 4c 8f de bd 94 c6 6e bd 98 ce 97 bd
       -0.053504847 -0.108671755 -0.058294848 -0.074124515
0002a0 7f 5c 71 bd 89 4a 34 bc 8b 5c 80 bd b4 13 77 3c
       -0.0589261 -0.011004099 -0.06267651 0.015080381
0002b0 22 e5 69 3c aa 2c 2a bd 04 00 de 3b 1b 4c bd 3d
       0.014275821 -0.0415465 0.006774904 0.092430316
0002c0 95 78 ae bc 69 6b 9c bd 71 3c 94 bd 78 50 a4 bd
       -0.021297732 -0.07637674 -0.07238091 -0.08023161
0002d0 c0 63 b7 bd f0 0a d6 bc 7b e8 10 3d b0 65 92 3d
       -0.08954573 -0.026128262 0.03537796 0.071483016
0002e0 07 51 40 3e 74 2d 05 3e a5 15 6d 3d 95 f3 fb 3a
       0.1878091 0.1300562 0.05788197 0.0019222373
0002f0 85 cf 37 3d 8a e6 ca 3c 7a 97 f1 bc ca 85 9a 3c
       0.04487564 0.024768133 -0.029491175 0.018862624
000300 de ab 58 bc 90 be 90 bd 22 35 b5 bc 16 01 17 bd
       -0.01322457 -0.07067597 -0.022120062 -0.03686627
000310 25 82 15 be 6c d4 ae bd 3c 8d fc bd c1 48 b1 3c
       -0.14600427 -0.0853661 -0.12331626 0.021641137
000320 0c 38 90 3b 54 41 d6 3b a9 b4 ae bd d9 c2 9e 3c
       0.0044012126 0.0065385494 -0.08530552 0.01938002
000330 60 47 70 bb a8 b5 37 3c 04 78 95 bd 81 59 ad bd
       -0.0036663637 0.011212744 -0.07298282 -0.08464337
000340 bd ef c4 bd 60 2d c8 bd d6 2c b1 bc 83 17 80 3c
       -0.09616039 -0.097742796 -0.021627825 0.015636211
000350 08 c1 a1 3d f8 3c 06 3e 24 ed fc 3d f7 9c 70 3d
       0.07898146 0.13109195 0.123499185 0.058743443
000360 75 87 85 3d 61 fa ab 3c 5e 90 49 bd 1f fd 54 bc
       0.06519977 0.020993413 -0.049209945 -0.012999802
000370 3e 47 da bc 4f ad fe bc fe a0 9a bd f6 8e 54 bd
       -0.026645299 -0.0310885 -0.07550238 -0.05189415
000380 f5 1a 9e bd 42 76 e8 bd 0f 89 ec bd a3 58 d1 bd
       -0.077199854 -0.11350681 -0.11549579 -0.10221984
000390 bd 49 3b bd fd 36 ba bc e9 ba c8 bc 93 4e 07 bd
       -0.04572462 -0.022731299 -0.024503188 -0.03303392
0003a0 f8 8e 39 bd d4 24 50 3d a7 10 06 bd b4 ce a0 bd
       -0.04530236 0.050816372 -0.032730725 -0.078519255
0003b0 77 e7 b7 bd b0 36 8d bd 4b 8f 30 bd 41 fa 7f bd
       -0.08979695 -0.068951964 -0.043105405 -0.06249452
0003c0 3e 4d e9 bd 22 68 34 bc 22 ba b6 3d e8 73 d7 3d
       -0.11391686 -0.011011155 0.08922221 0.10520154
0003d0 7e b9 27 3e a1 72 a6 3d cd 63 92 3d 48 c5 47 3d
       0.16379353 0.081273325 0.07147942 0.048772126
0003e0 2e 98 e9 3b c7 c8 01 bd b4 d6 62 3c 5f 8c 9c bd
       0.007128737 -0.031685617 0.0138451345 -0.07643961
0003f0 94 28 16 bd 2a a0 36 bc d5 fe 57 bd 4c d0 7e bd
       -0.036659792 -0.0111465845 -0.05273326 -0.062210366

fullyConnect1.bias f4 [30]
000000 c8 2e c8 3c e8 dc e7 bb fc ba 91 bc 9f a8 06 3e
       0.02443637 -0.0070758946 -0.017789356 0.13150261
000010 52 a3 30 bc f9 ed 31 bd 64 24 d0 bc 7a e5 e0 bc
       -0.010781126 -0.04343984 -0.025407977 -0.027453173
000020 21 73 0a 3e b2 84 21 be 49 65 99 bc 86 42 59 be
       0.1352048 -0.15773275 -0.018725054 -0.21216783
000030 60 7f 6d bc 34 c4 05 3e 8b 16 33 bd 68 9b d1 bb
       -0.014495701 0.13063127 -0.04372267 -0.0063966997
000040 73 ae 9c 3e c5 6e b6 3e 93 af 17 bc 7a 1c 02 bc
       0.30601844 0.35631385 -0.009258169 -0.00794136
000050 6f af 13 bc d9 a6 a6 bb 98 fc b4 ba ab ba 83 3e
       -0.009013995 -0.0050858078 -0.0013808189 0.25728354
000060 59 ce 1a 3e 82 96 88 3e 9d 45 f3 ba 39 d5 52 bd
       0.15117778 0.26677328 -0.0018560175 -0.051472876
000070 11 8f 1e bd 28 e3 4c bd
       -0.038710658 -0.05002132

fullyConnect2.weight f4 [30, 30]
000000 a9 e2 0b 3b c2 20 f9 3d 2b f7 34 3e 45 8a 35 3d
       0.0021344817 0.12164451 0.17672412 0.044321317
000010 ba 4c 72 3c 86 cf 41 3e c1 75 2e be 70 ff fa bd
       0.014788801 0.1892682 -0.17037107 -0.12255752
000020 7e e7 03 3d bf 46 36 bd 25 a3 5f bd ac b9 bd 3d
       0.03220319 -0.044501062 -0.054598946 0.0926393
000030 15 be 66 bd 8b 6f 29 3e f0 23 c3 3c 27 3b 1c be
       -0.05633362 0.16546457 0.023820847 -0.1525694
000040 b1 8b 1d 3e 2b 0d cd 3d 57 5b c5 bd 5a 3e 02 3e
       0.1538532 0.10012277 -0.09636562 0.12719098
000050 40 57 ed 3d 02 c7 de 3d 58 c9 f0 bc 9e 02 5e 3d
       0.11588907 0.108778015 -0.029392883 0.054201715
000060 b3 1a 94 3c 7b 03 37 3e 8b ce 1e be 3a 2a b7 bd
       0.018079137 0.17872421 -0.15508477 -0.08943601
000070 df c6 b1 3d 6f 81 c0 3d 04 bf 08 3e f0 dc 5f bc
       0.0868051 0.093996875 0.13354117 -0.013663515
000080 2e a6 02 3e 85 b2 38 be 60 00 16 3e 32 53 17 3e
       0.12758705 -0.1803685 0.1464858 0.1477783
000090 7c c6 ed 3d 18 75 d3 bc 2d 7d cc bd 00 ee 25 3d
       0.116101235 -0.02581267 -0.09984813 0.040510178
0000a0 60 90 ba 3d ed df 82 3d 60 1f 96 3d e6 3b 06 3e
       0.091095686 0.06390367 0.07330203 0.13108787
0000b0 a0 50 30 3e 48 6d da bd 07 35 38 3e e3 86 e3 be
       0.17218256 -0.10665375 0.17988978 -0.44438848
0000c0 0c 14 24 3e c8 4e 92 3d 8c 18 69 3d fd 70 dd bd
       0.16023272 0.071439326 0.056908175 -0.108125664
0000d0 48 69 0e be 82 13 23 be 15 f3 70 bd f7 51 94 3c
       -0.13907349 -0.1592541 -0.05882557 0.01810549
0000e0 74 a2 c5 3d b4 86 38 be 68 19 e0 bd 4b af e5 bd
       0.09650126 -0.18020135 -0.10942346 -0.11215075
0000f0 88 ae 60 3e ba 8b 27 3e 0b 6b 19 be 9f c6 ac bd
       0.21941578 0.16361895 -0.1498224 -0.084363215
000100 51 72 f7 bd 2b 6c 05 3e b7 64 1c be d9 7f 20 be
       -0.12082351 0.13029544 -0.15272795 -0.1567377
000110 ef 2f 14 3e 88 f8 97 3d ab 68 42 bd ba cb 23 3e
       0.1447141 0.074204504 -0.0474631 0.15995684
000120 59 4a 1a be 3a de 97 bd 70 a1 db bd 9f 52 17 3d
       -0.15067424 -0.07415433 -0.10724151 0.036944028
000130 70 eb ba bc af 9b 10 be b8 aa c1 bc 31 8d de bd
       -0.022817343 -0.14121889 -0.023640975 -0.10866774
000140 b2 fa 9f bd e0 4d db bd 1f 04 21 be e2 27 ee 3c
       -0.07811488 -0.10708213 -0.15724228 0.029071752
000150 07 80 19 3e 5f ee 87 3e f4 b9 1d be 83 11 c3 bc
       0.14990245 0.2654905 -0.15402967 -0.023812061
000160 3a 13 ee 3d fe 59 46 3d 9c a1 2e 3e 75 e5 34 be
       0.11624761 0.048425667 0.17053837 -0.17665656
000170 56 e5 86 3d 14 82 a3 3d 78 d4 e9 bc e6 63 3e 3d
       0.06586711 0.07983795 -0.028543696 0.04648199
000180 7c 3c ed 3d 24 40 ab 3d 04 49 69 3d 9b 04 96 3d
       0.11583802 0.08361843 0.0569544 0.07325097
000190 34 6e 08 be 6e 73 10 bd 50 71 13 be bd b4 09 be
       -0.13323289 -0.035266332 -0.14398694 -0.13447852
0001a0 e8 84 2d 3e 30 0f ef 3d 70 39 0d be dd 49 e8 3d
       0.16945231 0.11672819 -0.13791442 0.11342213
0001b0 3c e4 c6 3d a0 6b 30 3e 92 ba e9 bd 8e 20 c9 bd
       0.09711501 0.17228556 -0.114125386 -0.098206624
0001c0 40 e0 14 bd af 2f 9e bd e1 bf 62 3e 2c 9f 20 be
       -0.036346674 -0.07723939 0.22143508 -0.15685719
0001d0 77 05 22 be d4 f6 00 bd 04 f0 96 3d 30 f2 5d bd
       -0.15822397 -0.031485394 0.07369998 -0.054186046
0001e0 40 d9 71 3d b0 29 d1 bd 72 c1 63 bd 5d e3 1c be
       0.059045076 -0.102130294 -0.055604406 -0.15321107
0001f0 d3 cb 80 bc 65 d0 ac 3c cf b0 8f 3d 8b dd e7 3d
       -0.015722191 0.021095464 0.070161454 0.11321553
000200 f0 9e 52 3c 1c 49 3c 3e a7 82 99 3d b4 b7 23 3e
       0.012855276 0.18387264 0.07495623 0.15988046
000210 e8 05 26 be fe d5 e1 bd 0b 41 b0 3d 4b 62 62 bc
       -0.1621319 -0.11027144 0.08606156 -0.01381738
000220 1d bb 60 be 5a 00 e0 bd 2f 50 6b 3d b4 36 f6 bd
       -0.21946378 -0.10937567 0.057449516 -0.120221525
000230 f2 d8 8f bd b1 84 10 3e aa 56 01 3d 8b cd ac 3d
       -0.07023801 0.14113118 0.03157679 0.08437642
000240 08 32 20 be 1e c3 77 3e f5 8b 28 be 02 0d 1f be
       -0.15644085 0.24195525 -0.1645964 -0.15532306
000250 37 a3 25 3e fa 02 83 bd b2 24 4d 3e 7e 36 08 be
       0.16175543 -0.06397052 0.2003353 -0.13302037
000260 2c 60 31 3e 39 cc 25 be e8 8d 2a be 0e 36 24 3d
       0.17321843 -0.16191186 -0.16655695 0.040090613
000270 60 e7 9d 3d d0 65 68 3c ad e8 b3 3b f5 f8 62 3d
       0.07710147 0.01418443 0.0054903836 0.055413205
000280 c0 f4 51 3b 05 fd 57 3e 20 84 eb bc c4 17 88 bd
       0.0032036752 0.21092613 -0.028749526 -0.06645158
000290 52 fe 0f be 26 61 22 3e 68 e7 26 3e d8 6b 8e be
       -0.14061859 0.15857372 0.16299212 -0.27816653
0002a0 28 ae 8a 3d 4e b9 86 3d 6a 75 c4 bd 70 32 96 3d
       0.06771499 0.06578313 -0.095927075 0.07333839
0002b0 82 e5 a6 bd 27 a6 34 3c 34 06 d2 bd 56 ce a1 3e
       -0.08149244 0.011025942 -0.102550894 0.31602734
0002c0 1c f6 79 3d 74 e2 f1 3d 15 a4 b9 bd 60 d2 eb 3d
       0.061025724 0.11810771 -0.09064499 0.11514735
0002d0 f3 8c a3 3d 26 a8 21 3e 48 04 c1 3d 2c f3 2d be
       0.07985868 0.157868 0.09424645 -0.16987294
0002e0 a4 d5 d0 3d 90 c6 15 be 1c b6 74 bd d0 7f 81 3d
       0.10196999 -0.14626527 -0.059743986 0.063232064
0002f0 02 48 13 3c e7 8a 65 3e e4 16 80 3d 0f 4c 13 3e
       0.008989336 0.22416268 0.06254366 0.14384483
000300 88 d2 01 be f8 c9 4a 3d b9 18 ab bd 1a 66 31 3e
       -0.12677968 0.04950902 -0.08354325 0.17324105
000310 50 04 1d be 55 4f 80 be 60 3f 22 bc d8 67 b6 3c
       -0.15333676 -0.25060526 -0.009902805 0.022266313
000320 07 e0 ca bd 54 90 ab 3d c1 35 39 bc b9 a4 18 3d
       -0.09906011 0.08377138 -0.01130432 0.037266467
000330 65 cc f7 bc 7b b1 12 be b3 8e b0 bd d8 d1 ae 3c
       -0.03024883 -0.14325516 -0.08620968 0.021340296
000340 0a e0 09 3e 3b 4d 24 3e 45 66 9d bd 10 31 6d bd
       0.1346437 0.16045086 -0.07685522 -0.057908118
000350 d4 c7 4d 3d fe d0 71 3e 5b 19 63 3d 9a 74 17 3e
       0.0502394 0.2361488 0.055444103 0.14790574
000360 5e 5e 0a be c9 21 34 3e af f7 51 bd 98 ce 38 bd
       -0.1351256 0.17591013 -0.0512616 -0.0451189
000370 f7 db 7e 3d 0c 8e ed 3b 26 25 09 3e 81 43 5e 3e
       0.062221494 0.0072495993 0.13393077 0.21705438
000380 22 26 79 bd e9 7c 53 bd e0 df 83 bd 30 f8 b7 3e
       -0.060827382 -0.051632795 -0.06439185 0.3593154
000390 ea 6f 04 bc 9b ad d9 bd 85 c4 94 3d 8b e7 83 3b
       -0.008083323 -0.10628816 0.072640456 0.004025405
0003a0 90 71 21 3e 4f 2a 00 3e f0 b5 aa bd 3c e1 e3 3e
       0.15765977 0.1251614 -0.08335483 0.44507778
0003b0 2d 0d 79 3d 44 26 19 be 2a e4 d8 3d 34 7a f8 bd
       0.06080358 -0.14956003 0.10590394 -0.121326834
0003c0 39 af d6 bd da a9 0b 3e b3 e1 0e 3e fc cb 4b bd
       -0.1048264 0.13639012 0.13953285 -0.04975508
0003d0 9c a0 85 3d 74 77 2d 3e fc 6f 3b 3e ac f1 df b8
       0.065247744 0.16940099 0.18304437 -0.000106784835
0003e0 5c 41 e2 3d 3f 70 fe bc 77 3d 33 be 04 91 90 bc
       0.110476226 -0.031059382 -0.17503916 -0.017647274
0003f0 be 2a 6e 3d 72 eb 15 3e c8 a2 04 be 7f 19 9e 3d
       0.05814623 0.14640597 -0.12952721 0.07719707

fullyConnect2.bias f4 [30]
000000 85 61 83 3e 32 4f 4d be e3 08 8e bc 79 d7 48 be
       0.2566034 -0.20049742 -0.017338222 -0.19613446
000010 bb e2 f9 bd fe 66 72 be 6a 82 7b be 65 5c 9e 3e
       -0.122014485 -0.23672101 -0.24561468 0.30929866
000020 f7 3f 89 3e 83 bb 83 bc 44 31 36 3e 79 ab 4b 3c
       0.26806614 -0.016080623 0.17792231 0.012431019
000030 48 49 e5 3d 81 ff a7 3e f7 19 d5 3e 5d 37 09 3e
       0.11195618 0.32812122 0.41621372 0.13400026
000040 bd 0b 3a bd 80 2d 81 bb 32 fe 8b 3e 6f 45 fb 39
       -0.04542135 -0.0039421916 0.27342373 0.00047926183
000050 98 4d 22 3e 98 c4 cd bd 0f 51 4d be a9 24 48 3a
       0.15849912 -0.10047263 -0.20050453 0.00076348573
000060 78 67 a4 3d bc c4 2e be 58 ce 5b 3e 49 c6 1c bd
       0.080275476 -0.17067236 0.21465433 -0.038275037
000070 88 7e 31 bd 8c e6 84 3d
       -0.04333356 0.06489286

fullyConnect3.weight f4 [3, 30]
000000 09 8a 22 3d cb 6f 62 be 0b 6d 77 be f1 2f 31 bf
       0.03968242 -0.22112958 -0.2416269 -0.6921378
000010 54 a5 21 be a2 9d 97 be eb 97 b4 bd 03 51 ec 3d
       -0.15785724 -0.29612452 -0.088180386 0.11538889
000020 dc 30 3f 3e 78 01 d2 be 89 c8 97 be 19 c9 e5 3e
       0.18670982 -0.41016746 -0.29645184 0.44879988
000030 1c 3f 42 bd 4a d1 ac 3c 21 1f e3 3d 37 28 3e 3e
       -0.047423467 0.02109589 0.11089922 0.18570028
000040 4f 40 b8 be 18 cb b3 3e b4 3c cf 3e 9c 68 18 be
       -0.35986564 0.35115886 0.40476 -0.14883655
000050 4a 16 ec 3d 8f 4f 93 3d 70 d2 46 be c9 ed 34 3e
       0.11527689 0.07192909 -0.19416213 0.17668833
000060 40 ba f0 3c 4e 40 2f bd 2e 33 25 3f 11 7c ba be
       0.029385686 -0.042785935 0.6453122 -0.3642278
000070 2e ce 8c 3e 5c 95 25 be 2d 71 13 be 08 90 91 3d
       0.27501053 -0.16170257 -0.14398642 0.0710755
000080 19 e2 c0 3b 97 b4 6a bd af 15 24 3e b8 b8 e2 3d
       0.005886328 -0.05730113 0.16023897 0.110703886
000090 48 b7 4e 3e 46 84 6d be 82 de 45 be 45 89 1a 3e
       0.20187104 -0.2319499 -0.19323161 0.15091427
0000a0 5e 5e 11 bf fa 2e ff be a3 1e 32 be c9 9d a5 be
       -0.5678462 -0.49840528 -0.173945 -0.32346943
0000b0 4f d6 b5 be 59 e1 56 be 62 86 01 3e 48 23 5e be
       -0.35515067 -0.20984401 0.12648919 -0.21693146
0000c0 e5 dc d7 be c7 6c 12 bd 45 86 0c be 0a d2 b9 bc
       -0.42160717 -0.03574827 -0.13723095 -0.022683162
0000d0 a3 38 0c 3e 99 6e d4 3d 21 f7 b6 3d 49 2f 2e 3e
       0.1369348 0.10372657 0.08933855 0.17010225
0000e0 88 96 30 3d 58 d3 26 3e c0 49 c3 bd aa 85 a1 3d
       0.043112308 0.16291559 -0.09535551 0.078868225
0000f0 26 c1 3c 3e 9e 55 7a be 9b 89 16 3e 77 c1 54 3e
       0.18433055 -0.24446723 0.1470093 0.20776926
000100 5d f0 36 3c 5a 43 68 bc 14 2e 95 bd db 03 88 3e
       0.0111657055 -0.014176214 -0.07284179 0.2656544
000110 61 59 14 3e 1f 02 e5 3d 4c aa c0 3e dd 9f 06 be
       0.1448722 0.11182045 0.37629926 -0.1314692
000120 5a 8f 29 3e 4e 3d 7f 3e 55 6d 2d 3e a8 d3 6e 3e
       0.1655859 0.2492573 0.16936238 0.23322928
000130 e1 41 ea 3c fa 6e e7 bd a2 36 8f 3d 01 d7 97 bd
       0.028595867 -0.11300464 0.06992842 -0.074140556
000140 0b a5 69 3e c2 a1 48 3e 9d c8 e9 bd 17 1a 25 be
       0.22816865 0.19592956 -0.11415217 -0.16123234
000150 de b7 28 3d 20 e9 ae bd 28 51 94 be d7 95 f1 3d
       0.041190974 -0.08540559 -0.28968167 0.11796158
000160 ac 3e 87 bd 58 18 1d 3e
       -0.066037506 0.15341318

fullyConnect3.bias f4 [3]
000000 f0 67 3e 3d c6 37 79 be 05 64 b6 bd
       0.04648584 -0.24337682 -0.08905796
