src/explore/cnn code/cnn_trained_model.pt (torch_old, 73471 bytes, 10 tensors)

convLayer1.weight f4 [16, 1, 3, 3]
0	0x3d67ed41	0.056622747
1	0x3bc38e68	0.005967904
2	0xbdbdb412	-0.09262861
3	0xbcf416b4	-0.029795982
4	0xbe29a53c	-0.16566938
5	0xbdacce2d	-0.084377624
6	0x3d25d5a2	0.04048694
7	0xbd7ccfac	-0.06172149
8	0xbd255651	-0.04036552
9	0xbdacdbc0	-0.084403515
10	0xbdbd8223	-0.09253337
11	0x3c77421a	0.015091443
12	0x3d5c17e4	0.05373372
13	0xbe5c4486	-0.21510515
14	0x3d5f9bb5	0.054591853
15	0xbdf191b2	-0.11795367
16	0xbe684479	-0.2268237
17	0xbdcfaf1b	-0.101408206
18	0x3bc2ffe8	0.0059509166
19	0x3d5e44ce	0.054264836
20	0x3cb9ca2d	0.022679413
21	0x3d6fa1b9	0.05850384
22	0x3d4b418a	0.04962305
23	0x3ea445d1	0.32084516
24	0x3daa8059	0.083252616
25	0xbe2e270c	-0.17007083
26	0xbb82f4ee	-0.003996483
27	0xbcbe5fd8	-0.023239061
28	0xbd06ab10	-0.03287798
29	0xbd378505	-0.04480459
30	0xbd7f8df4	-0.062391236
31	0x3bcf880d	0.006333357
32	0x3d1f496e	0.038888387
33	0xbdaa6665	-0.083203115
34	0xbc9f28d4	-0.019428648
35	0x3e031334	0.12800294
36	0xbcdb01e9	-0.02673431
37	0xbd69960a	-0.057027854
38	0x3ea13f5a	0.31493646
39	0x3d7bf60d	0.06151395
40	0x3ddad560	0.10685229
41	0xbbc05b29	-0.005870242
42	0x3f210573	0.6289894
43	0x3c903a5b	0.017605951
44	0xbd66c296	-0.056337915
45	0xbde4be03	-0.11169054
46	0xbe6da482	-0.23207286
47	0xbfa6efba	-1.3041909
48	0x3cdf61ad	0.027268255
49	0x3e57464e	0.21022913
50	0xbdce43d9	-0.10071535
51	0x3e765255	0.24054845
52	0xbca22438	-0.019792661
53	0xbcd50b12	-0.026006255
54	0x3f454325	0.7705558
55	0xbd43c059	-0.04779086
56	0xbd1cbe18	-0.038267225
57	0xbb31358e	-0.0027039978
58	0xbcdff405	-0.027338037
59	0x3b859a8b	0.004077261
60	0xbd12ac5b	-0.035808902
61	0xbd644c2c	-0.055736706
62	0xbbbc34d5	-0.0057436028
63	0x3d8a73c4	0.06760362
64	0x3d4b3d10	0.04961878
65	0x3f2680b7	0.65040153
66	0x3cddc9f4	0.027073838
67	0x3d6b2291	0.057406012
68	0xbd3541b9	-0.04425213
69	0x3f25d6b9	0.64780766
70	0xbc72833e	-0.014801798
71	0xbdcc6f1c	-0.0998213
72	0xbe9496ee	-0.290214
73	0xbf478cae	-0.77949035
74	0xbd730c55	-0.059337933
75	0x3f253db6	0.6454729
76	0x3cba7e7d	0.022765392
77	0x3cc5caf1	0.024144622
78	0x3a83632f	0.0010024066
79	0xbd696bd4	-0.0569876
80	0xbd10c6db	-0.035345893
81	0x3c95af38	0.018272027
82	0x3d26b2a5	0.040697712
83	0xbdb8a591	-0.09015954
84	0xbd525978	-0.051354855
85	0xbea83daa	-0.32859546
86	0xbe97205b	-0.29516873
87	0x3b2e9586	0.0026639416
88	0x3e90e36b	0.28298506
89	0xbe210c91	-0.1572745
90	0x3c09e516	0.008416435
91	0x3b98dab6	0.0046647443
92	0x3c3aab2d	0.011393351
93	0x3d1f94d4	0.038960293
94	0x3cfcc095	0.030853549
95	0x3cf17c2c	0.029478155
96	0x3cbe427d	0.023225063
97	0x3badf0ce	0.005308247
98	0x3c60b527	0.013715065
99	0xbc42e8ba	-0.011896307
100	0x3d3302e5	0.043703932
101	0xbd267893	-0.040642332
102	0x3e3d4ec8	0.18487084
103	0xbe657eaa	-0.224116
104	0xbd807736	-0.06272738
105	0xbd2ee20f	-0.042696055
106	0x3d6d6f9d	0.05796777
107	0x3b2f28e7	0.002672726
108	0x3e895b7f	0.26827618
109	0xbda71b19	-0.08159465
110	0xbddbe8fa	-0.10737796
111	0xbe033c66	-0.12816009
112	0xbe1519d8	-0.1456064
113	0xbdd9590d	-0.10612688
114	0xbe13f284	-0.14447981
115	0xbd3028c2	-0.04300762
116	0x3e375ac6	0.17905721
117	0xbe3305e0	-0.1748271
118	0x3dd7099c	0.1049988
119	0x3ed69207	0.41908285
120	0xbe6eb257	-0.23310219
121	0x3e63fb71	0.22263886
122	0xbdb5639f	-0.08856892
123	0xbf68d68d	-0.9095238
124	0xbd9f6570	-0.077830195
125	0xbcdf6301	-0.027268888
126	0xbcf2c7eb	-0.029636344
127	0x3d8ede9c	0.06976053
128	0x3d17631e	0.03695976
129	0x3e260b0e	0.16215155
130	0x3e2f39c0	0.17111874
131	0x3e3763af	0.1790912
132	0x3dd2ab77	0.102866106
133	0x3e2164e3	0.15761141
134	0x3e57a056	0.21057257
135	0xbbb09de9	-0.005389918
136	0x3d8c812f	0.06860577
137	0x3d0490c7	0.032364633
138	0xbc3502ba	-0.011048013
139	0xbc54cd65	-0.012988423
140	0xbba27964	-0.0049583185
141	0x3cf064d8	0.029344961
142	0xbc917fae	-0.017761078
143	0x3a4e84f4	0.0007878088

convLayer1.bias f4 [16]
0	0x3e869406	0.26284808
1	0x3e02585a	0.12729016
2	0xbe270f75	-0.1631449
3	0x3e7b8c65	0.24565275
4	0xbed2301e	-0.41052336
5	0x3d5da733	0.05411453
6	0xbeda69ec	-0.42658937
7	0xbf4321f2	-0.7622367
8	0xbe550b90	-0.20805192
9	0x3d5cf9dd	0.053949226
10	0x3f80ed97	1.0072507
11	0x3e3de304	0.18543631
12	0xb98f13f7	-0.0002728996
13	0xbd6566d2	-0.05600626
14	0xbdcf66c9	-0.101270266
15	0x3f060daa	0.523646

convLayer2.weight f4 [16, 16, 3, 3]
0	0xbd784ba3	-0.060619008
1	0x3d23a8e2	0.03995598
2	0x3e8dccd0	0.27695322
3	0xbd95648a	-0.07294567
4	0xbd511a8a	-0.0510507
5	0xbdeab607	-0.114605
6	0xbc716ec1	-0.014735878
7	0xbdd08124	-0.101808816
8	0xbc486cc8	-0.012232967
9	0xbdb9d2ab	-0.09073385
10	0xbe53bfc1	-0.20678617
11	0x3e54233a	0.20716563
12	0xbe08ea82	-0.13370708
13	0xbe06044f	-0.13087581
14	0x3e05256b	0.13002555
15	0x3d952cc3	0.07283928
16	0xbd74e990	-0.059793055
17	0x3dcb6a72	0.09932412
18	0xbd2ed656	-0.042684875
19	0x3e554c5b	0.20829909
20	0x3dc20efa	0.09475513
21	0xbdea4283	-0.11438467
22	0x3e11d227	0.14240323
23	0xbcf64010	-0.030059844
24	0x3db91d9f	0.09038853
25	0x3e9bfcc1	0.30466273
26	0xbd49f6cc	-0.04930763
27	0xbc630db2	-0.013858246
28	0x3b7562c9	0.0037442914
29	0x3e016737	0.1263703
30	0xbccf83b0	-0.025331348
31	0xbc416724	-0.011804376
32	0x3d7c184e	0.061546616
33	0xbda5fc75	-0.08104793
34	0x3e1bef43	0.1522799
35	0x3dbe91db	0.093051635
36	0xbeb9c64a	-0.36284095
37	0x3e20dbf1	0.15708901
38	0xbd06915b	-0.032853466
39	0xbe17aa53	-0.14811067
40	0x3eb2693a	0.34845906
41	0xbd4fc235	-0.05072232
42	0xbd1f1297	-0.038836088
43	0x3d2ff71f	0.042960282
44	0x3dc68848	0.09693962
45	0x3d72f8b2	0.059319206
46	0x3d7696e9	0.060202513
47	0xbd730085	-0.059326667
48	0x3be8e882	0.007107795
49	0xbb933a83	-0.004493059
50	0xbe2c8d8c	-0.16850871
51	0x3dccf4eb	0.10007652
52	0x3ccd2251	0.025040777
53	0x3d56c9f3	0.052438688
54	0xbefe5a7a	-0.49678403
55	0x3d23e815	0.040016253
56	0x3ea6529f	0.3248491
57	0xbe825f69	-0.25463417
58	0x3e5dee9c	0.21673054
59	0xbd821609	-0.06351859
60	0xbe597041	-0.21234228
61	0x3dd573e3	0.10422494
62	0x3ca40e90	0.020026475
63	0xbee39389	-0.44448498
64	0xbe82573f	-0.25457188
65	0x3f8d064c	1.1017547
66	0xbfa0d6d0	-1.2565556
67	0x3ad473f2	0.0016208871
68	0xbe9c09e1	-0.30476287
69	0x3d8fbebc	0.070188016
70	0xbed0a317	-0.40749428
71	0xbdf19d25	-0.11797551
72	0x3d8aa7ac	0.06770262
73	0xb9de9582	-0.00042454532
74	0xbdb517e6	-0.08842449
75	0xbd7abf5f	-0.061217662
76	0x3cd09bf4	0.02546499
77	0xbb820750	-0.003968157
78	0xbd7f9730	-0.062400043
79	0x3e0c5792	0.1370528
80	0x3dc2be8e	0.09509002
81	0x3dc2bc52	0.095085755
82	0xbd49e2ae	-0.049288444
83	0x3dcebcf8	0.10094637
84	0xbc48424c	-0.012222838
85	0xbc4f260f	-0.012643351
86	0xbe171ae6	-0.14756355
87	0x3c97d533	0.018534278
88	0x3c162b0b	0.009165536
89	0xbcf8e8e4	-0.030384488
90	0xbc92fb0f	-0.01794198
91	0x3e1da5ea	0.15395322
92	0x3d8d9da8	0.06914836
93	0xbe0477a9	-0.12936272
94	0x3ce250b6	0.027626377
95	0x3cf77de4	0.030211397
96	0xbd447051	-0.047958676
97	0x3d4f6445	0.050632734
98	0x3da86540	0.08222437
99	0xbd9b0da1	-0.07570959
100	0xbb845bcd	-0.004039264
101	0x3d901f27	0.07037192
102	0xbd3c8c06	-0.046031974
103	0xbda1e968	-0.07905847
104	0xbda6c8ea	-0.0814379
105	0xbde69f54	-0.11260858
106	0x3c77207c	0.0150834285
107	0xbcf74526	-0.03018434
108	0xbe02cc9e	-0.12773368
109	0xbde1f88f	-0.11033737
110	0xbda282fd	-0.0793514
111	0xbc288f68	-0.010288097
112	0x3d6d8cb1	0.057995502
113	0xbd77c38b	-0.06048922
114	0xbdfc02fc	-0.12305257
115	0x3de06861	0.10957409
116	0xbdab8aaf	-0.08376061
117	0xbdd85458	-0.10562962
118	0x3e7c6f15	0.2465175
119	0xbea3456e	-0.31888908
120	0xbd5a044c	-0.053226754
121	0x3d52da2e	0.051477604
122	0x3a3f9006	0.0007307533
123	0xbc9064ca	-0.017626185
124	0x3e898a55	0.2686335
125	0xbdb1fc58	-0.08690709
126	0xbdf31d6e	-0.11870848
127	0x3d9e56fe	0.07731436
128	0xbdebb720	-0.11509538
129	0xbd853ce4	-0.065057546
130	0xbd7a194f	-0.061059292
131	0xbdb1206a	-0.086487606
132	0xbe3a8a1d	-0.18216749
133	0x3d83f057	0.064423256
134	0x3dcd6a28	0.10030013
135	0xbc98be94	-0.018645562
136	0x3e796382	0.24354365
137	0x3e6cf392	0.2313979
138	0xbde4931a	-0.1116087
139	0x3d86e7ca	0.06587179
140	0xbd9f924c	-0.07791576
141	0xbd8e21f2	-0.06940068
142	0xbae0e373	-0.0017157629
143	0x3df8b967	0.12144738
144	0xbd7382f9	-0.059451077
145	0x3cd94b8e	0.026525285
146	0xbd1157d3	-0.035484146
147	0xbcf53ea1	-0.02993709
148	0xbdb50fb5	-0.088408865
149	0x3bd333bb	0.0064453757
150	0xbd70ddb4	-0.058805183
151	0x3d06fbc4	0.032954946
152	0x3d95ae65	0.07308654
153	0xbd802b50	-0.06258261
154	0x3bfadf83	0.007656039
155	0x3ae0ba89	0.0017145436
156	0x3d7938f9	0.06084535
157	0xbcf30e83	-0.029670006
158	0x3d49a129	0.04922596
159	0xbdafd261	-0.085850485
160	0xbd78ee11	-0.060773913
161	0x3d40a0ac	0.04702823
162	0x3d2bda3e	0.04195618
163	0x3ce74384	0.028230436
164	0x3d164342	0.036685236
165	0xbd9fc3ce	-0.07801019
166	0x3a5a8a3d	0.0008336639
167	0x3d80e153	0.06292977
168	0x3cccaccd	0.024984742
169	0xbd8d7adf	-0.069082014
170	0xbdac5464	-0.08414534
171	0x3c3b167c	0.011418935
172	0x3cc0e73d	0.023547763
173	0xbce1e53e	-0.027575132
174	0xbd723549	-0.059132848
175	0xbd9bf27f	-0.07614612
176	0x3cc65422	0.02421004
177	0xbd5b51ea	-0.053544916
178	0x3cf1fd06	0.029539596
179	0xbc074f2c	-0.008258622
180	0x3cf52767	0.029926015
181	0xbd474334	-0.048648074
182	0xbb1b2852	-0.0023675156
183	0xbd743795	-0.05962332
184	0xbdca8761	-0.09889103
185	0x3d940517	0.07227533
186	0x3cb38cee	0.021917786
187	0xbbb900e6	-0.005645859
188	0xbcfa50e8	-0.030556157
189	0x3d64dbeb	0.055873793
190	0x3ca5e353	0.020249998
191	0x3c06bb3d	0.008223352
192	0xbd91b0cc	-0.071137995
193	0x3cc72197	0.02430801
194	0xbd9c4fd1	-0.07632411
195	0xbd6c3120	-0.057664037
196	0x3d5696bf	0.052389856
197	0xbc8b3eff	-0.016997812
198	0x3c52c47b	0.012864227
199	0x3d5992b7	0.053118434
200	0xbda9dba5	-0.08293847
201	0x3d20aa82	0.03922511
202	0x3cf8e1da	0.030381132
203	0x3cbad899	0.02280836
204	0xbd9f1c60	-0.07769084
205	0xbdc4188c	-0.095749944
206	0x3d4123df	0.04715335
207	0xbd8485be	-0.06470822
208	0x3d2b19de	0.041772716
209	0xbd90a4e2	-0.07062699
210	0xbd608861	-0.05481756
211	0xbdc437e3	-0.09580972
212	0x3cc50fc4	0.02405537
213	0x3d9f2a83	0.0777178
214	0x3d31dda8	0.04342428
215	0xbd494194	-0.049134806
216	0xbb47abdc	-0.0030467426
217	0xbc2ead10	-0.0106613785
218	0x3c3c4e54	0.011493284
219	0xbc99e9c1	-0.01878822
220	0x3d2dcc85	0.042431373
221	0x3cadcfdf	0.021217285
222	0x3d254f29	0.040358696
223	0xbd75e0fe	-0.060029022
224	0xbd908bc9	-0.07057912
225	0x3cdd958c	0.027048849
226	0xbd9b53cb	-0.075843416
227	0xbc9e584c	-0.019329213
228	0xbd8cd7bd	-0.06877086
229	0xbda796b2	-0.0818304
230	0xbcc619b2	-0.024182174
231	0xbcb079ad	-0.021542395
232	0xbd98cebd	-0.07461307
233	0xbd82b23b	-0.06381651
234	0x3d3ef1de	0.04661738
235	0x3d242e24	0.040083066
236	0xbc434564	-0.0119183995
237	0xbd0d33ee	-0.034473352
238	0xbd703b83	-0.058650505
239	0xbbadece2	-0.0053077796
240	0xbd2f86d1	-0.04285318
241	0x3d8c7fd8	0.06860322
242	0xbd59f0a4	-0.05320801
243	0xbba74ae7	-0.0051053646
244	0xbd970001	-0.073730476
245	0xbdad487a	-0.084610894
246	0x3c8dd13b	0.017311683
247	0xbcd70706	-0.026248466
248	0xbd15ca8b	-0.036570113
249	0xbd8ed80d	-0.06974802
250	0x3d53dcdb	0.051724296
251	0x3c857663	0.016291803
252	0x3d4fe26c	0.050753042
253	0xbd1b103c	-0.03785728
254	0x3cb791bd	0.02240836
255	0xbd9ec490	-0.07752335

convLayer2.bias f4 [16]
0	0x3c9fbd14	0.01949934
1	0xbd8dbee4	-0.06921175
2	0x3e448462	0.19191125
3	0x3e95b096	0.29236287
4	0x3e60994c	0.21933478
5	0x3ec60204	0.38673413
6	0x3e30af60	0.172544
7	0x3d634815	0.055488665
8	0x3d9dbf0e	0.077024564
9	0x3db80797	0.08985823
10	0x3d3429c8	0.04398516
11	0x3d3b81cf	0.045778092
12	0x3e141b36	0.14463505
13	0x3e357917	0.17721973
14	0x3e2fe269	0.17176212
15	0x3e97a838	0.29620528

fullyConnect1.weight f4 [30, 480]
0	0x3cb520ee	0.022110429
1	0x3bea1dbc	0.007144658
2	0x3c604c55	0.013690074
3	0xbd248dfe	-0.040174477
4	0xbcb7269c	-0.022357278
5	0xbd3da193	-0.046296667
6	0x3b43ebdf	0.0029895229
7	0x3ce94e13	0.028479612
8	0x3bc937ac	0.00614067
9	0x3c7459f8	0.014914028
10	0xbb884e1e	-0.004159703
11	0x3c2c369a	0.010511065
12	0x3ca98139	0.020691501
13	0xbd1b09ca	-0.037851132
14	0x3bf98d44	0.007615717
15	0xba16bb98	-0.00057499995
16	0xbcc3e9ba	-0.02391516
17	0xbce1e097	-0.027572913
18	0xbd401898	-0.046898454
19	0xbd418f73	-0.047255944
20	0xbd41e9bf	-0.04734206
21	0x3bf62f62	0.0075129727
22	0xbd0f6493	-0.035008024
23	0xbd2f90d4	-0.04286273
24	0x394f23af	0.00019754352
25	0x3cd93732	0.026515577
26	0xbcb8b2d8	-0.022546217
27	0xbccbb183	-0.024864918
28	0xbcc880f0	-0.024475545
29	0xbc9c02b3	-0.019044256
30	0xbcb3bc8f	-0.021940498
31	0x3a163f78	0.00057315035
32	0xbca42250	-0.020035893
33	0xbc1dc541	-0.0096295485
34	0xbbe4a6ea	-0.0069779055
35	0xbd22fd32	-0.039792247
36	0xbd4bd586	-0.04976418
37	0x3d048f7c	0.0323634
38	0x3c50daa7	0.012747443
39	0x3d1dc3e0	0.03851688
40	0x3d16cdac	0.036817238
41	0x3c8e8685	0.017398128
42	0xbcec962a	-0.028880198
43	0xbc3dd1be	-0.011585651
44	0x3caaf589	0.020869033
45	0xbc1bc206	-0.009506708
46	0x3ce05d8b	0.027388355
47	0xbbddd6ed	-0.006770006
48	0xbd3e4a48	-0.04645756
49	0x3d06e7b8	0.032935828
50	0xbd213e14	-0.039365843
51	0x3b2cca30	0.002636563
52	0xbd2912f4	-0.04127784
53	0x3cc5234a	0.024064679
54	0xbce32f85	-0.02773262
55	0x3c91ff9e	0.017822083
56	0xbd514b0d	-0.051096965
57	0xbc96e64d	-0.018420363
58	0x3c36bde1	0.011153669
59	0x3ca7c138	0.020477876
60	0x3c574bf6	0.013140669
61	0xbb035afe	-0.002004325
62	0x3cc3fe41	0.023924949
63	0xbcc02b1d	-0.023458058
64	0x3c9d44a4	0.01919777
65	0xbbeb9ffe	-0.0071907034
66	0x3c9b522c	0.018960081
67	0x3d0151ba	0.03157208
68	0xbd2189a5	-0.03943791
69	0xbc6f4239	-0.014603191
70	0xbd17b08c	-0.037033603
71	0x3c9e63fc	0.019334786
72	0xbccc63f1	-0.02495
73	0x3cdff662	0.027339164
74	0xbcfc6adb	-0.030812671
75	0xbc61db5c	-0.0137852095
76	0xbca8d74a	-0.02061047
77	0x3ca4466d	0.020053113
78	0xbc161456	-0.009160122
79	0xbd1b86a6	-0.037970208
80	0xbd07b4a9	-0.033131275
81	0x3c6499cd	0.013952685
82	0xbc811895	-0.015758792
83	0xbd0c592a	-0.03426472
84	0xbcc15dcd	-0.023604298
85	0xbd48d737	-0.04903337
86	0xbd52ed3a	-0.051495768
87	0xbcfcbca7	-0.030851675
88	0xbd0639a1	-0.032769803
89	0xbd0bbc1d	-0.034114946
90	0xbc0af81b	-0.0084820045
91	0x3b57d374	0.0032932432
92	0xbcc7e395	-0.024400512
93	0x3d1acfaf	0.03779572
94	0xbccd6f92	-0.025077615
95	0x3c8f607c	0.017502062
96	0xbd51144a	-0.05104474
97	0xbd13eb97	-0.036113348
98	0x3c13749a	0.008999968
99	0x3a13bc0e	0.00056356273
100	0x3c569687	0.013097412
101	0x3bcbee2b	0.00622346
102	0xbc1713b2	-0.009221004
103	0x3a1d39af	0.000599767
104	0xbd382182	-0.04495383
105	0x3a026be7	0.0004975185
106	0xbcd19863	-0.025585359
107	0xbd0c9f2d	-0.03433149
108	0xbbbaf7fe	-0.0057058325
109	0xbd0cb6e4	-0.034354106
110	0x3cf8052c	0.030275904
111	0xbce75d86	-0.028242838
112	0x3c387d58	0.011260353
113	0xbc67d862	-0.014150711
114	0x3c106570	0.008813247
115	0x3c109f9c	0.008827116
116	0x3bc191e6	0.005907285
117	0x3ca31abf	0.019910214
118	0xbcf5a07c	-0.029983751
119	0xbbb6fdbc	-0.0055844467
120	0xbd4e7af2	-0.05041022
121	0xbae1b373	-0.0017219618
122	0xbca931d0	-0.020653635
123	0x3ccb0b60	0.024785697
124	0xbb1e9071	-0.002419498
125	0x3d15ae0e	0.036542945
126	0xbcc276a0	-0.023738205
127	0xbaedfc8f	-0.0018156933
128	0xbbc202be	-0.005920737
129	0x3b9f125e	0.0048544845
130	0xbd27fd0f	-0.04101282
131	0x3c2a0e5a	0.010379398
132	0xbbe9dcb4	-0.0071369056
133	0xbd0b2d51	-0.033978764
134	0x3d1a7c72	0.037716337
135	0x3d1851d1	0.0371874
136	0xbcb3a28d	-0.021928096
137	0xbd17ab27	-0.037028458
138	0x3b12866a	0.002235795
139	0x3d1c1ff8	0.038116425
140	0x3cd9b167	0.02657385
141	0x3c96915b	0.018379858
142	0x3b4dce24	0.0031403387
143	0x3adba7f5	0.0016758429
144	0xb9b0b60c	-0.0003370497
145	0xbb990f87	-0.0046710405
146	0xbcfb0cdd	-0.030645782
147	0xbd047211	-0.032335345
148	0x3c6b82bb	0.01437443
149	0x3b956390	0.004558988
150	0x3c360be3	0.011111232
151	0xbd4a40ee	-0.049378328
152	0xbc6eecdb	-0.014582838
153	0x3d14de8b	0.036345046
154	0x3cd1b464	0.025598712
155	0x3cb7c2b2	0.022431705
156	0x3cef066e	0.02917787
157	0x3c0bfe81	0.008544565
158	0xbd370997	-0.04468688
159	0x3d12d2e4	0.035845652
160	0xbc032ad4	-0.0080058165
161	0x3cb9a742	0.022662763
162	0x3c998fd2	0.018745337
163	0xbce985b1	-0.028506132
164	0x3d093245	0.033495206
165	0xba3d5149	-0.000722189
166	0x3c1d4326	0.009598529
167	0xbcb7599d	-0.022381598
168	0xbcfaddea	-0.030623395
169	0xbd0085df	-0.03137767
170	0x3c7a3a56	0.015272697
171	0x3d04909d	0.032364476
172	0x3c987e84	0.018615015
173	0xbd51ee83	-0.051252853
174	0xbc9d0caf	-0.019171087
175	0xbd349647	-0.04408863
176	0xbcee75a4	-0.02910883
177	0xbd3147f9	-0.04328153
178	0x3c6bdd3a	0.014396006
179	0xbd349cea	-0.044094957
180	0xbd1eccf5	-0.03876968
181	0x3c126746	0.008935755
182	0xbcea058e	-0.028567102
183	0xbab3288b	-0.0013668699
184	0xbd155b28	-0.036463886
185	0x3b8dccef	0.0043274085
186	0x3c4307ce	0.011903716
187	0xbd4f18cd	-0.05056076
188	0x3d1199d6	0.0355471
189	0xbc379f20	-0.011207372
190	0xbaeb509f	-0.0017953104
191	0xbb295e38	-0.0025843512
192	0x3d0c09ef	0.03418916
193	0x3c5aa7be	0.013345657
194	0x3cb9ac63	0.022665208
195	0xbce22ded	-0.02760979
196	0xbd127fee	-0.035766535
197	0x3befc7f3	0.007317537
198	0x3cee0bbb	0.029058328
199	0x3cb164af	0.021654455
200	0xbb24701d	-0.0025091239
201	0xbcebe932	-0.02879772
202	0xbce950b2	-0.028480861
203	0xbd1fcb8f	-0.039012488
204	0xbccd8ad7	-0.025090618
205	0xbb1bf839	-0.0023799075
206	0x3cca31e2	0.02468199
207	0xbc966b4f	-0.018361716
208	0xbcbb548b	-0.022867462
209	0xbd41fd5b	-0.04736076
210	0xbd48099b	-0.048837285
211	0xbd439a98	-0.047754854
212	0x3bc6a6ce	0.006062365
213	0xbccc0392	-0.024904046
214	0xbc6d1cdf	-0.014472215
215	0x3d0489b8	0.0323579
216	0xbc7bddce	-0.015372707
217	0x3cb1d64e	0.021708634
218	0x3c950c58	0.018194363
219	0xbcb552b6	-0.022134166
220	0xbcdf098c	-0.027226232
221	0xbb31c434	-0.0027125003
222	0xbd4731c9	-0.048631463
223	0xbd170b41	-0.036875967
224	0xbcda919a	-0.026680756
225	0x3cf5d220	0.030007422
226	0x3d19ce26	0.037550114
227	0xbbd0cfb6	-0.0063724173
228	0x3cce1ff5	0.025161723
229	0x3c34097b	0.010988588
230	0xbd55f48b	-0.052235167
231	0xbd32512d	-0.043534447
232	0x3ceeace1	0.02913517
233	0x3d03594f	0.032067593
234	0xbbcf5596	-0.0063273413
235	0x3c94b414	0.018152274
236	0x3d0eec8e	0.034893565
237	0xbc419941	-0.011816324
238	0x3bb8c47e	0.005638658
239	0xbc4e48de	-0.012590615
240	0x3d048486	0.032352947
241	0xbc7596a5	-0.01498953
242	0xbccf08f1	-0.025272818
243	0xbc24f9f5	-0.01006936
244	0x3b3ae7b4	0.0028519453
245	0x3c8874e9	0.01665731
246	0xbce45b9f	-0.02787572
247	0xbbde95b6	-0.0067927493
248	0xbd1d7799	-0.038444135
249	0x3d16a559	0.03677878
250	0x3cb2d84e	0.021831658
251	0xbaca5c7a	-0.0015438937
252	0x3c4fee19	0.012691044
253	0xbc06b47d	-0.008221743
254	0xbbd51325	-0.0065025263
255	0xbbea18ed	-0.0071440847

fullyConnect1.bias f4 [30]
0	0xbc05d2b7	-0.008167914
1	0xbbfb632f	-0.0076717357
2	0xbd78cad9	-0.060740326
3	0xbd2c14ae	-0.04201191
4	0xbd4fe815	-0.05075844
5	0x3f94edb7	1.1635045
6	0xbd12cdd1	-0.035840813
7	0xbcce161c	-0.025157027
8	0x3e369dc5	0.17833622
9	0xbbc8e4dc	-0.006130798
10	0xbbabd9e8	-0.0052444823
11	0xbd168472	-0.036747403
12	0x3e14fb44	0.14548975
13	0xbda71801	-0.08158875
14	0xbdb0e270	-0.086369395
15	0xbcc79338	-0.024362192
16	0xbdb683e7	-0.08911877
17	0x3f138617	0.5762648
18	0x3d54b8b8	0.051933974
19	0xbc36c9a3	-0.011156472
20	0xbc4b41c3	-0.0124058155
21	0x3f38c802	0.7218019
22	0x3dff157c	0.1245527
23	0xba865c89	-0.0010250966
24	0x3d5cfc8c	0.053951785
25	0xbd2eab36	-0.04264375
26	0x3f36531b	0.7122056
27	0xbd2f000e	-0.04272466
28	0xbd05a772	-0.03263039
29	0x3e9b2be6	0.3030693

fullyConnect2.weight f4 [30, 30]
0	0xbd3f973f	-0.0467751
1	0x3de8b4e9	0.11362631
2	0xbb0e6113	-0.0021725341
3	0x3d61868e	0.055059962
4	0x3c68cbe0	0.014208764
5	0x3e087cb5	0.13328822
6	0x3de76876	0.11299221
7	0xbe146f3f	-0.14495562
8	0xbe62645f	-0.22108601
9	0xbe25a585	-0.16176422
10	0x3dd58269	0.104252644
11	0x3ea06dc1	0.31333736
12	0x3e5cfec2	0.21581557
13	0x3cbb0e61	0.022834005
14	0x3e26afdc	0.16278023
15	0xbd630642	-0.05542589
16	0xbfcf6bd4	-1.6204782
17	0xbedda954	-0.4329325
18	0xbdcdbbac	-0.10045561
19	0x3dd1a42d	0.10236392
20	0x3c2d7aec	0.010588389
21	0x3d4fe0b7	0.050751414
22	0x3e0b777c	0.13619798
23	0xbe0aef08	-0.13567746
24	0xbe8bd7e6	-0.27313155
25	0xbdc386b8	-0.0954718
26	0x3e95f76f	0.2929034
27	0xbda1a23a	-0.078922704
28	0x3ceb1f36	0.028701406
29	0xbe72ebb5	-0.23722728
30	0x3d0bad1c	0.034100637
31	0x3d9610f8	0.07327455
32	0x3e22752a	0.15865007
33	0xbe125db2	-0.14293554
34	0xbd088ab5	-0.033335406
35	0x3e35d8e6	0.17758521
36	0xbdd626f6	-0.1045665
37	0xbdafa8b5	-0.085771
38	0x3caa0538	0.020754442
39	0x3e03ae12	0.12859371
40	0x3e296b10	0.16544747
41	0xbc1f3425	-0.009717022
42	0x3e71ffc2	0.2363272
43	0xbe191fff	-0.14953612
44	0xbe25a67d	-0.16176791
45	0x3da7e9ab	0.081988655
46	0xbe1272a4	-0.14301544
47	0x3e2dec37	0.1698464
48	0x3e5aad23	0.21355109
49	0xbe36afe2	-0.17840531
50	0x3d573b84	0.052546993
51	0xbdbe70b6	-0.09298842
52	0xbe6fcdc3	-0.23418336
53	0xbc1fa407	-0.009743697
54	0x3cc51d2b	0.02406176
55	0x3d3fd908	0.046837837
56	0xbecf8107	-0.40528128
57	0xbe172b52	-0.14762619
58	0xbd88d766	-0.06681709
59	0x3ed442b6	0.41457146
60	0xbda64e5b	-0.08120414
61	0xbdc37b3d	-0.0954499
62	0xbe3a3dd7	-0.18187653
63	0xbd5ac9c2	-0.053415067
64	0xbdbfea7f	-0.093708985
65	0x3e0b393d	0.13596053
66	0x3d7ed3ee	0.06221383
67	0xbdf669ad	-0.12031875
68	0x3c9238d5	0.017849365
69	0xbdef2329	-0.11676628
70	0xbd8018a2	-0.06254698
71	0xbc8102ec	-0.015748464
72	0x3f0e17a0	0.555048
73	0xbd380443	-0.04492594
74	0x3b1a100b	0.0023508098
75	0xbdd75b5a	-0.10515471
76	0xbe1b7457	-0.15181099
77	0x3dd3c670	0.10340583
78	0xbde61cb8	-0.112359464
79	0x3d75b466	0.059986494
80	0x3e185e31	0.14879681
81	0x3e3fefde	0.18743846
82	0x3ded2177	0.115786485
83	0xbd700593	-0.058599066
84	0xbd271975	-0.040795762
85	0xbdd834db	-0.105569564
86	0x3d242a44	0.04007937
87	0xbdd5b514	-0.104349285
88	0x3dfe475b	0.12415954
89	0xbf12915b	-0.57253045
90	0x3d8688da	0.06569071
91	0xbe376512	-0.17909649
92	0x3dfa3082	0.122162834
93	0x3d112a34	0.03544064
94	0x3e077f2f	0.1323211
95	0x3e964fcf	0.29357764
96	0xbe1ba368	-0.15199053
97	0xbe1fdf36	-0.15612492
98	0x3e01d265	0.12677915
99	0x3e31042c	0.17286748
100	0xbdc6eaa5	-0.09712724
101	0x3cc3d4a3	0.023905104
102	0x3f2978e0	0.66200066
103	0x3da4db96	0.08049695
104	0x3dbe74d1	0.09299625
105	0xbc997e49	-0.018736975
106	0xbf1c9869	-0.6117006
107	0x3e65ff7d	0.22460742
108	0xbe0b53c8	-0.13606179
109	0x3ce3fcb0	0.027830452
110	0xbe2170fa	-0.15765753
111	0x3eb1cfae	0.3472876
112	0xbdcd83c5	-0.10034899
113	0x3d3b7d28	0.045773655
114	0x3cf87051	0.030326994
115	0xbc5b4800	-0.013383865
116	0xbee34a79	-0.44392756
117	0xbe03ef62	-0.12884286
118	0xbd73b10c	-0.059495017
119	0xbf28060f	-0.65634245
120	0x3dd3d156	0.10342662
121	0xbc8d9fe7	-0.017288161
122	0x3e1fbc64	0.15599209
123	0x3d85094e	0.06495915
124	0x3e18c73d	0.14919753
125	0x3f0b657e	0.5445174
126	0x3d523eaf	0.05132931
127	0xbe024698	-0.12722242
128	0x3e0f214c	0.13977545
129	0x3c37663d	0.011193809
130	0xbe3b5c3f	-0.18296908
131	0xbe0a2f09	-0.13494505
132	0xbe336fc2	-0.17523101
133	0xbd18c851	-0.03730041
134	0x3d87ee03	0.06637194
135	0x3dafc154	0.08581796
136	0x3e1c99a9	0.15292992
137	0x3e7184f3	0.23585872
138	0xbd8f5edb	-0.07000514
139	0xbd44cb46	-0.04804542
140	0x3ccd1e92	0.025038991
141	0xbf3a2644	-0.7271464
142	0x3de3bc1d	0.11119864
143	0x3da0ebbb	0.07857462
144	0xbd3af185	-0.045640487
145	0xbd44f8f0	-0.048088968
146	0xbd3c5c28	-0.045986325
147	0xbcf1d3f0	-0.029520005
148	0x3d3a8441	0.045536283
149	0xbfc35017	-1.5258816
150	0x3daaddd5	0.08343092
151	0xbd400a0d	-0.046884585
152	0xbd7b85e4	-0.061406985
153	0xbdbfe5e6	-0.093700215
154	0xbe0dcae7	-0.13846932
155	0x3f0f50fb	0.5598294
156	0xbe3b82be	-0.18311593
157	0x3e27b414	0.16377288
158	0xbe6fe929	-0.23428787
159	0xbe1076ec	-0.14107865
160	0xbe1342e9	-0.14380993
161	0x3d4a6ea2	0.049421914
162	0x3f0804fe	0.5313262
163	0xbde26a64	-0.11055449
164	0x3c815a63	0.01579017
165	0x3d6eca7c	0.058298573
166	0x3e7b168b	0.24520318
167	0xbea6aa8a	-0.32551986
168	0xbeec2478	-0.46121573
169	0x3e2288c0	0.15872478
170	0xbe08fed9	-0.13378467
171	0x3d4a7689	0.04942945
172	0xbeeaddf7	-0.4587247
173	0xbdf4ab24	-0.11946705
174	0xbee76259	-0.4519222
175	0x3df7c2ab	0.12097677
176	0x3e64ff41	0.22362997
177	0xbd4d438c	-0.050113246
178	0x3dd0d71c	0.10197279
179	0x3ce18d54	0.02753321
180	0x3dd1729e	0.102269396
181	0x3e29f79d	0.16598363
182	0x3d8f7e50	0.07006514
183	0x3b7f3b3f	0.0038945226
184	0xbe150a7b	-0.14554779
185	0x3f027309	0.5095678
186	0x3d06bae4	0.032893077
187	0xbd4d9a8a	-0.050196208
188	0x3e109689	0.14119925
189	0xbda66cab	-0.081261955
190	0xbe2ea4bb	-0.17055027
191	0xbe21e936	-0.15811619
192	0x3ebe6eb3	0.37193832
193	0x3e21f182	0.15814784
194	0x3dabd924	0.08391026
195	0xbc9a0603	-0.018801695
196	0xbf312f26	-0.6921257
197	0xbdb027b1	-0.086013205
198	0xbe127819	-0.14303626
199	0xbcaa3e10	-0.020781547
200	0xbd4556a4	-0.04817833
201	0xbdbc3053	-0.091889046
202	0x3e521d44	0.20518976
203	0x3d8ed601	0.06974412
204	0x3e7f8d45	0.24956234
205	0x3d9039d0	0.07042277
206	0xbe9c6665	-0.3054687
207	0x3dd9c20c	0.10632715
208	0xbdfc153d	-0.123087384
209	0xbe92c53c	-0.28666103
210	0xbc814df5	-0.015784243
211	0xbdc5bb01	-0.09654809
212	0xbc6f2aa3	-0.014597568
213	0xbc8a7215	-0.016900102
214	0x3e29bcac	0.16575879
215	0xbea38120	-0.31934452
216	0xbdde8be7	-0.10866528
217	0xbdfdc4f5	-0.12391082
218	0xbfadbe0e	-1.3573625
219	0x3d7ab984	0.061212078
220	0x3db2b701	0.087263115
221	0x3e3fff40	0.18749714
222	0x3e193bb3	0.1496418
223	0xbd913b87	-0.07091432
224	0xbdafe916	-0.085893795
225	0x3e2f0e20	0.17095232
226	0xbcca85bd	-0.024721975
227	0x3ee09045	0.4386007
228	0xbf889cd0	-1.0672855
229	0xbe05ea8d	-0.13077755
230	0xbda5073a	-0.08058019
231	0xbe4a0256	-0.19727454
232	0xbf0c1bf9	-0.5473018
233	0xbe4ebf63	-0.20190196
234	0x3cce2c16	0.025167506
235	0xbd7568ae	-0.059914283
236	0xbf2c0e16	-0.67208993
237	0x3e05f6c8	0.13082421
238	0x3e33f338	0.1757325
239	0x3f37aca0	0.7174778
240	0x3c9c8af0	0.01910922
241	0x3e0ff3fe	0.1405792
242	0xbdb3259c	-0.08747408
243	0xbd6ccace	-0.057810597
244	0x3c25117c	0.010074969
245	0xbf50dc9b	-0.8158662
246	0xbb0c6ad6	-0.0021425984
247	0x3e13fa16	0.14450869
248	0xbe45c46b	-0.19313209
249	0xbc89a380	-0.016801596
250	0xbe002b99	-0.12516631
251	0x3e1cfbd2	0.15330437
252	0x3eaa9769	0.33318642
253	0xbd17b9f7	-0.037042584
254	0xbe32086c	-0.17386025
255	0x3d806850	0.06269896

fullyConnect2.bias f4 [30]
0	0x3e9d4bad	0.307218
1	0xbd19f77e	-0.037589543
2	0x3e7bcea6	0.24590549
3	0x3e8e52b3	0.2779747
4	0xbb9a1418	-0.0047021024
5	0x3e69c8d8	0.22830522
6	0xbc4ae2f6	-0.012383213
7	0x3e6ddacf	0.23228
8	0x3f2126a0	0.6294956
9	0x3e76fcfe	0.24119946
10	0x3f5241e2	0.8213178
11	0xbd83b055	-0.06430117
12	0x3f7a601f	0.9780292
13	0x3ea80625	0.32817188
14	0x3ea12ec0	0.3148098
15	0x3e24b844	0.16085917
16	0x3f9b5539	1.2135383
17	0x3e0c0f2b	0.13677661
18	0xbe2cfb7b	-0.16892807
19	0x3ee14975	0.44001356
20	0xbc1734bf	-0.009228884
21	0x3deb09b5	0.11476461
22	0x3df12f37	0.11776584
23	0xbf0b00ef	-0.542983
24	0x3d902d8c	0.070399374
25	0x3e9886d6	0.29790372
26	0xbbff981f	-0.0078001167
27	0xbddcad64	-0.10775259
28	0xbddd4dfb	-0.10805889
29	0xbd8d1a09	-0.068897314

fullyConnect3.weight f4 [3, 30]
0	0x3f4a7805	0.79089385
1	0x3ee4c790	0.44683504
2	0xbdf9bf16	-0.1219465
3	0xc0047c04	-2.0700693
4	0x3d677176	0.05650469
5	0x3f63f9c4	0.8905299
6	0xbf8d15cf	-1.102228
7	0x3f81e633	1.0148376
8	0xbfce754e	-1.6129549
9	0xbf7ad43c	-0.97980094
10	0x3ef533ac	0.47890985
11	0xbe33d079	-0.17559995
12	0x3e74f941	0.23923208
13	0xbed750ff	-0.42053983
14	0x3fa8216c	1.31352
15	0xbe4ac114	-0.19800216
16	0x3ed06866	0.4070465
17	0x3f2b1568	0.6682954
18	0x3da720f9	0.08160586
19	0xbd4d2509	-0.050084148
20	0xbd9e028e	-0.07715331
21	0x3e6a690a	0.22891632
22	0x3f093768	0.5360017
23	0xbe2509ea	-0.16117063
24	0xbeb262ae	-0.34840912
25	0x3ea48162	0.3212996
26	0xbc342259	-0.010994517
27	0xbe19508c	-0.14972132
28	0xbe3a0d14	-0.18169051
29	0x3da75e1f	0.08172249
30	0x3f2661ba	0.6499287
31	0x3ebeeba8	0.37289166
32	0xbe1965c4	-0.14980227
33	0x3d43d03f	0.04780602
34	0x3e7d38c3	0.24728684
35	0xc093e208	-4.6213417
36	0x3e2938d4	0.16525584
37	0xc08d322c	-4.4123745
38	0x3f600220	0.8750324
39	0xbd02f781	-0.03197432
40	0x3f5f133e	0.87138736
41	0xbbcc3aab	-0.0062325797
42	0xbfc7b58d	-1.560228
43	0x3d75539c	0.05989419
44	0x3ce01c8b	0.02735736
45	0xbdbbb0f2	-0.09164609
46	0xbf91d93e	-1.1394422
47	0x3ed0bf4a	0.40770942
48	0xbe6eb669	-0.23311771
49	0xbeb8111a	-0.35950547
50	0x3e16763e	0.14693543
51	0xbebba62e	-0.36650223
52	0x3e064ca8	0.1311518
53	0x4028a902	2.6353154
54	0x3cd0f72c	0.025508486
55	0xbd701549	-0.05861405
56	0x3d8c0ead	0.06838737
57	0xbc8c4f06	-0.017127525
58	0xbd2945c3	-0.041326296
59	0x3b45e41f	0.0030195785
60	0xbf3caf2b	-0.73704785
61	0xbed2b14b	-0.4115089
62	0x3e35dbde	0.17759654
63	0x3ce35b94	0.027753629
64	0xbd8753af	-0.06607758
65	0xbf1ea36e	-0.61968124
66	0xbdf59a9c	-0.1199238
67	0xbf1bc5c9	-0.6084867
68	0x3efa58c0	0.48895836
69	0xbdb9a625	-0.09064893
70	0xbf8f92f2	-1.1216719
71	0x3c675ea3	0.014121684
72	0x3e8918bf	0.26776692
73	0x3e6e8782	0.2329388
74	0xbe3f0e2d	-0.18657751
75	0x3e527012	0.20550564
76	0x3d8e6b17	0.069540195
77	0xbeaf54c1	-0.3424435
78	0xbe5222d1	-0.20521094
79	0x3e63a915	0.22232468
80	0xbe21a6e5	-0.15786321
81	0x3e37a6cd	0.17934723
82	0xbe31fe61	-0.17382194
83	0xbe9c8576	-0.30570573
84	0xbd20f3c2	-0.039294966
85	0x3de42d12	0.11141409
86	0xbe22fa47	-0.15915786
87	0x3df64877	0.1202554
88	0x3d001f8c	0.031280085
89	0xbe46b0f2	-0.19403437

fullyConnect3.bias f4 [3]
0	0x3e90e8be	0.28302568
1	0x3d3bb2d0	0.045824826
2	0x3d84a603	0.06476977
